Code/DiseasePredictionApplication/app/src/main/assets/diseasepredictionmodel.tflite (tflite, 116512 bytes, 6 tensors)

sequential/dense/MatMul/ReadVariableOp/transpose f4 [132, 132]
0.14135483 0.034391392 0.04965277 0.04243065 -0.16564609 0.07314528 -0.079119645 -0.057136994
-0.11343152 -0.08317038 -0.07754379 0.08130679 -0.09327955 -0.017798176 0.10223488 0.11433373
0.037711307 0.022002693 0.18677115 -0.09291851 -0.124866284 0.12268226 -0.07970662 -0.0056148754
0.05596735 0.094942324 -0.1048292 0.13644531 -0.17626128 0.07998084 0.06934791 0.013344188
-0.0394297 0.17584279 0.045706157 0.21085666 -0.15237015 -0.18220414 0.035367377 0.16680755
-0.0732504 -0.059157252 0.05143789 0.2194296 -0.054100115 0.05350256 0.09121173 0.15313883
0.17103799 -0.005506852 0.033284318 -0.06560901 0.045655467 0.15634617 0.15863611 -0.027243407
-0.08284141 -0.054310776 -0.11299433 0.07523658 0.024523651 -0.15039264 -0.17697638 -0.05362239
0.13495746 -0.08983148 -0.13991606 0.00481576 -0.011986659 -0.009171801 0.17048603 0.17322636
0.19274974 0.11388916 0.014952545 0.057690214 -0.022160592 -0.11850219 0.028638557 -0.06012789
0.18374637 -0.070337735 -0.09926646 -0.01540662 -0.105837256 0.060794037 -0.06936322 0.042639144
-0.05830619 -0.0755637 -0.05652968 -0.07076481 -0.05377288 0.007037458 0.11802801 -0.0069019874
0.080073066 0.058356065 0.030077808 0.019153455 -0.051600713 0.14831656 0.2083277 -0.12516993
-0.08298992 0.040050045 0.15730807 0.13359255 0.032607175 0.19996803 0.09430679 0.01691709
0.032882724 0.10854142 -0.023110654 0.12879811 0.07666162 0.015026749 0.06643436 -0.03509134
-0.12089833 0.10210763 -0.07971181 0.045301653 -0.08539801 -0.012237672 -0.0007872168 0.0028019364
-0.064513996 -0.034711085 -0.08825867 -0.05299951 0.083030045 -0.06066578 0.19901615 0.13274856
0.10992955 0.19219172 0.11312036 -0.0113609135 0.1131886 0.16875182 -0.15654679 0.20321803
0.05300137 -0.027980298 -0.16961901 -0.06688835 0.1128723 0.011384128 0.117185146 -0.095012754
-0.0029935972 -0.07298521 -0.14899415 0.14324176 0.094821006 0.14015242 -0.1825562 0.020717697
0.07347456 -0.07666709 -0.132508 0.15961705 0.009157735 -0.08861599 0.20389462 -0.13063636
0.13102666 0.12560944 -0.07585216 0.017425228 -0.0068802135 -0.0052399123 0.07066649 0.0010327213
-0.18224889 -0.07145524 -0.048008174 0.009854456 0.13150688 -0.07848516 -0.059607465 0.1916235
0.030378012 0.055827573 0.15005665 0.14714502 0.15660419 0.017147172 -0.09615748 0.008447707
-0.14814053 -0.073975705 -0.10553879 0.17160057 -0.20016806 0.0021098554 -0.07367777 -0.11589496
0.049430147 -0.08846761 0.038310945 -0.11423197 0.08439285 0.04636453 -0.15920044 -0.06152197
-0.059802253 -0.096747175 0.1886074 0.14724478 0.0699616 -0.19119036 0.04501927 -0.12328878
0.20490769 -0.06809098 0.101155244 0.023591733 -0.002855906 0.032102693 -0.072114706 -0.04530094
0.036574777 -0.112042226 -0.08888991 -0.12594438 -0.020640487 0.16121209 -0.09461798 0.13764223
0.10625681 0.13777985 0.10733766 0.0727992 -0.09245257 0.031074986 0.06236716 -0.032405965
0.13978356 -0.18072252 0.11079085 0.081595525 -0.0029284265 -0.09727842 -0.07523082 0.053242855
0.057774328 -0.057346657 -0.01366352 -0.0938661 0.10815895 0.11906129 -0.12003559 -0.08124366
00000000: 52bf 103e fddd 0c3d b460 4b3d c3cb 2d3d
00000010: 219f 29be 31cd 953d 7b09 a2bd 7b08 6abd
00000020: c94e e8bd 3b55 aabd 47cf 9ebd 2d84 a63d
00000030: 5909 bfbd 7bcd 91bc 8560 d13d cd27 ea3d
00000040: 2c77 1a3d fe3e b43c f040 3f3e 0f4c bebd
00000050: e5b9 ffbd d640 fb3d 393d a3bd fdfc b7bb
00000060: 053e 653d 1f71 c23d b1b0 d6bd 52b8 0b3e
00000070: d67d 34be ffcc a33d 4706 8e3d 95a1 5a3c
00000080: 0981 21bd 2210 343e 6136 3b3d cfea 573e
00000090: ec06 1cbe b993 3abe 62dd 103d 99cf 2a3e
000000a0: 4e04 96bd e04e 72bd 89b0 523d 27b2 603e
000000b0: 1598 5dbd 8025 5b3d 37cd ba3d 6dd0 1c3e
000000c0: 9524 2f3e d372 b4bb 2355 083d 045e 86bd
000000d0: 3a01 3b3d 3619 203e 8171 223e 912d dfbc
000000e0: c2a8 a9bd fa74 5ebd 9269 e7bd a315 9a3d
000000f0: d3e5 c83c 8700 1abe 4c39 35be 27a3 5bbd
00000100: 4a32 0a3e 91f9 b7bd 2846 0fbe 86cd 9d3b
00000110: b163 44bc 5245 16bc e493 2e3e 4062 313e
00000120: 3060 453e b83e e93d 85fb 743c 934c 6c3d
00000130: 218a b5bc 47b1 f2bd 689b ea3c aa48 76bd
00000140: 0228 3c3e 3b0d 90bd 374c cbbd 0c6c 7cbc
00000150: 34c1 d8bd 2b03 793d 4e0e 8ebd 62a6 2e3d
00000160: 79d2 6ebd 24c1 9abd aa8b 67bd 24ed 90bd
00000170: f440 5cbd 7a9a e63b abb8 f13d 112a e2bb
00000180: 59fd a33d c506 6f3d bc65 f63c b5e7 9c3c
00000190: 455b 53bd 4ce0 173e db53 553e 8c2c 00be
000001a0: 9ff6 a9bd 840b 243d 5e15 213e 7ccc 083e
000001b0: 1a8f 053d 6bc4 4c3e eb23 c13d b695 8a3c
000001c0: 09b0 063d f74a de3d 8e52 bdbc a7e3 033e
000001d0: c400 9d3d c132 763c bd0e 883d f0bb 0fbd
000001e0: 8b99 f7bd ce1d d13d f23f a3bd 3a8e 393d
000001f0: 27e5 aebd 8480 48bc 3a5d 4eba b1a0 373b
00000200: ea1f 84bd 362d 0ebd f6c0 b4bd 0416 59bd
00000210: a80b aa3d ae7c 78bd e4ca 4b3e 3def 073e
00000220: be22 e13d e8cd 443e a6ab e73d 2023 3abc
00000230: 6dcf e73d 47cd 2c3e cd4d 20be 6318 503e
00000240: f717 593d f036 e5bc 9bb0 2dbe c2fc 88bd
00000250: 9829 e73d 7e84 3a3c c4fe ef3d 0c96 c2bd
00000260: 3a30 44bb 4579 95bd ec91 18be f8ad 123e
00000270: 8431 c23d 1e84 0f3e 03f0 3abe 29b8 a93c
00000280: d579 963d a303 9dbd 2db0 07be a772 233e
00000290: 530a 163c 4d7c b5bd c0c9 503e 8ac5 05be
000002a0: da2b 063e c39f 003e 6158 9bbd 5abf 8e3c
000002b0: 6a73 e1bb 92b3 abbb 98b9 903d 605c 873a
000002c0: 749f 3abe 2057 92bd 38a4 44bd 9674 213c
000002d0: bda9 063e d4bc a0bd f526 74bd f338 443e
000002e0: 4fdb f83c 74ab 643d 73a8 193e 2fad 163e
000002f0: d95c 203e 3a78 8c3c 36ee c4bd 4068 0a3c
00000300: 27b2 17be 9380 97bd b924 d8bd 0fb8 2f3e
00000310: dbf8 4cbe 8045 0a3b 5fe4 96bd 565a edbd
00000320: 4477 4a3d 822e b5bd f0eb 1c3d 73f2 e9bd
00000330: 29d6 ac3d bce8 3d3d 7105 23be 76fe 7bbd
00000340: 35f3 74bd 6223 c6bd 4c22 413e 56c7 163e
00000350: 0748 8f3d 68c7 43be 2066 383d d47e fcbd
00000360: 52d3 513e 4973 8bbd 7b2a cf3d 7343 c13c
00000370: 272a 3bbb 1d7e 033d e0b0 93bd 7a8d 39bd
00000380: 6fcf 153d 6576 e5bd ea0b b6bd 90f7 00be
00000390: 3d16 a9bc c814 253e 12c7 c1bd 16f2 0c3e
000003a0: 2c9d d93d 2916 0d3e d9d3 db3d bf17 953d
000003b0: c657 bdbd f890 fe3c b574 7f3d 1ebc 04bd
000003c0: 6c23 0f3e 530f 39be 50e6 e23d 8e1b a73d
000003d0: d8ea 3fbb e939 c7bd 9e12 9abd 2e15 5a3d
000003e0: c6a4 6c3d 54e4 6abd f5dc 5fbc df3c c0bd
000003f0: 7182 dd3d 68d6 f33d 38d5 f5bd 1363 a6bd

sequential/dense/MatMul_bias f4 [132]
0.041493323 0.07839515 0.055121165 0.075857356 0.059402913 0.052938305 0.087061554 0.06480502
0.07021999 0.084218875 0.07215424 0.08587494 0.07674513 0.09054424 0.07489185 0.08229191
0.095649175 0.068083696 0.082383305 0.08140972 0.076445304 0.08172473 0.08066837 0.078337505
0.06758941 0.086920865 0.084409595 0.01927518 0.085100666 0.07450158 0.08470081 0.042943705
0.08805957 0.09605975 0.06877039 0.08705049 0.09144297 0.08964919 0.08949641 0.04622941
0.06585256 0.08779263 0.08237077 0.08280441 0.07422574 0.090777576 0.08583613 0.09485475
0.06292845 0.07854259 0.08004953 0.07802377 0.072311044 0.07983083 0.07441912 0.08528865
0.07807582 0.07030569 0.079918526 0.055806465 0.094520636 0.06877844 0.08745729 0.0921395
0.08075842 0.053687032 0.08624755 0.08834341 0.06913874 0.08258781 0.09168325 0.07069263
0.049385738 0.07759442 0.08886818 0.072858214 0.073293194 0.067457795 0.07477829 0.06949253
0.075597696 0.07900043 0.09419255 0.08098167 0.0917698 0.077419244 0.09362874 0.08203756
0.08959016 0.09107231 0.07492252 0.06454858 0.07912662 0.09422208 0.09665523 0.077433236
0.09020092 0.08914604 0.081716746 0.087066546 0.08065424 0.083118886 0.078443155 0.0618394
0.074079454 0.052435305 0.0817364 0.09446314 0.09488179 0.08147354 0.07082317 0.08346731
0.084432736 0.07044463 0.088169254 0.083796196 0.06673591 0.06439244 0.08345168 0.08212711
0.03989823 0.08139822 0.08118109 0.057429586 0.07364845 0.07795057 0.06322631 0.083192706
0.09125185 0.0614755 0.08196965 0.07793305
00000000: e7f4 293d a38d a03d bbc6 613d 1a5b 9b3d
00000010: 7850 733d d6d5 583d 544d b23d 7fb8 843d
00000020: 80cf 8f3d f27a ac3d 9ac5 933d 33df af3d
00000030: 8d2c 9d3d 426f b93d e660 993d a988 a83d
00000040: b7e3 c33d 776f 8b3d 94b8 a83d 24ba a63d
00000050: 5b8f 9c3d 4c5f a73d 7535 a53d 6a6f a03d
00000060: 516c 8a3d 9103 b23d f0de ac3d fbe6 9d3c
00000070: 4249 ae3d 4994 983d 9e77 ad3d bde5 2f3d
00000080: 9358 b43d f9ba c43d 7dd7 8c3d 8747 b23d
00000090: 7446 bb3d ff99 b73d e549 b73d 0d5b 3d3d
000000a0: b5dd 863d 9fcc b33d 02b2 a83d 5c95 a93d
000000b0: aa03 983d 98e9 b93d daca af3d 3543 c23d
000000c0: a2e0 803d f0da a03d 02f1 a33d edca 9f3d
000000d0: d017 943d 597e a33d 0d69 983d d1ab ae3d
000000e0: 37e6 9f3d 6efc 8f3d 53ac a33d 5295 643d
000000f0: 0994 c13d b6db 8c3d cf1c b33d a2b3 bc3d
00000100: ac64 a53d efe6 5b3d 8ea2 b03d 64ed b43d
00000110: 9d98 8d3d cc23 a93d 6ec4 bb3d 4cc7 903d
00000120: b348 4a3d d3e9 9e3d 8500 b63d b036 953d
00000130: be1a 963d 5027 8a3d 5c25 993d 1952 8e3d
00000140: f7d2 9a3d faca a13d 06e8 c03d b8d9 a53d
00000150: cef1 bb3d fb8d 9e3d 6dc0 bf3d 4f03 a83d
00000160: 0c7b b73d 1f84 ba3d fa70 993d 0c32 843d
00000170: 230d a23d 82f7 c03d 2df3 c53d 5195 9e3d
00000180: 43bb b83d 3392 b63d 1c5b a73d f24f b23d
00000190: 0d2e a53d 3c3a aa3d cea6 a03d 504b 7d3d
000001a0: f8b6 973d 67c6 563d 6a65 a73d e475 c13d
000001b0: 6251 c23d 99db a63d bd0b 913d e9f0 aa3d
000001c0: 12eb ac3d 4645 903d 1592 b43d 579d ab3d
000001d0: d6ac 883d 2fe0 833d b7e8 aa3d 4232 a83d
000001e0: 546c 233d 1cb4 a63d 4542 a63d 493b 6b3d
000001f0: 00d5 963d 8ca4 9f3d cc7c 813d f060 aa3d
00000200: 40e2 ba3d bccd 7b3d b4df a73d 5d9b 9f3d

sequential/dense_1/MatMul/ReadVariableOp/transpose f4 [64, 132]
-0.1919904 -0.087172784 0.18145594 -0.06647218 -0.13513872 -0.01820573 0.05181104 0.05733529
-0.110935 -0.003875075 0.054578688 -0.11016918 0.2282033 -0.0013156824 0.019463206 0.03539195
0.114902765 -0.18072924 0.123035744 -0.083079726 0.14247027 0.23677668 0.15409748 -0.23245554
-0.12567776 0.024375748 0.10573446 -0.18603651 -0.06590448 0.23731153 0.1840266 -0.10195466
-0.013422402 0.15195164 0.07373904 0.01473958 0.006560043 -0.20911537 0.17295985 0.112171024
0.062645525 -0.1986021 0.0025334945 -0.013703077 -0.03145515 -0.042496126 0.04738722 0.10609395
0.061635375 -0.16331342 0.18345946 0.057833053 -0.1614399 0.056104686 0.10244581 -0.008140431
-0.10588056 -0.038650647 -0.114192426 -0.21493322 0.095840976 -0.09243637 0.12752983 0.014043725
-0.10663985 0.19492835 -0.11854643 0.09309915 0.12819326 0.17018034 -0.03674466 -0.04374048
0.009708706 -0.13480775 0.059892897 -0.032068472 0.06585554 -0.02357806 0.20930184 0.024733286
0.10484632 0.15437534 -0.12410065 -0.16741656 -0.04541074 0.18557508 0.226332 0.16641234
-0.19950238 0.19545636 0.14585364 0.18457696 0.07090942 0.1497814 0.0334805 -0.009292182
0.10137224 0.18618754 0.16198729 -0.030401377 -0.053871065 0.04450444 -0.10102001 -0.028015886
0.047957815 -0.14980446 -0.084774 -0.055712625 -0.062324245 0.21373987 -0.15760407 0.084522575
-0.086938076 0.12720829 0.19008157 0.047973976 0.13556433 -0.0056306655 -0.099711314 0.058979522
0.025354164 0.10036686 0.21297605 0.03869498 0.008979021 -0.0817827 -0.16599458 -0.19020925
0.17368408 -0.04894458 -0.0018035996 -0.19767824 -0.09403652 0.0862635 -0.13136771 -0.05078894
0.043094765 0.030340822 0.09211239 -0.13067107 -0.10293269 0.19946903 -0.07765288 0.14573051
-1.1723081e-05 0.07549501 0.014969288 -0.02055914 -0.16449274 0.15383586 0.047573064 -0.07069726
-0.19073853 -0.15110612 0.07890729 -0.18888086 0.20473137 0.021825435 0.05655714 0.010818291
0.07147077 0.14748852 -0.016745487 0.09327838 0.082708105 -0.1339637 0.16513228 -0.24532582
0.12903689 0.13936867 0.15055384 0.14955449 0.22317895 0.21686043 -0.14859205 0.20517929
0.24186923 0.11597343 0.25173447 -0.20126748 0.26306462 0.1637917 -0.04238878 -0.147487
-0.06283434 -0.07419835 -0.064952314 0.1379481 0.17380837 0.051182974 0.04938809 -0.14439572
-0.18188407 -0.070423774 -0.021640083 0.089482985 0.12289466 0.09495538 0.22794461 -0.05361876
-0.22562142 -0.026766153 0.032241665 0.01123513 0.11447481 0.2257835 -0.14213474 -0.09758805
0.07667238 -0.09407833 0.10644977 0.19510768 0.25412664 0.042109847 0.08356304 0.13810202
0.090824 0.22059707 -0.13885902 -0.14261633 -0.17599371 -0.07312828 0.11954652 -0.11531602
0.25769073 -0.047315605 -0.073690414 0.22924973 -0.1359747 0.17741537 -0.17854218 -0.088425085
0.18373345 -0.0025141477 0.24424103 0.028244771 -0.17960945 0.13479333 0.08545321 0.19149908
0.18479578 -0.078716844 0.12781577 -0.008934459 0.19037004 -0.085289426 0.15745239 -0.077693954
-0.013947012 -0.09796104 -0.064783216 -0.044482313 0.16304375 0.24095574 0.14448617 -0.08436204
00000000: 2299 44be a587 b2bd 96cf 393e 9122 88bd
00000010: ce61 0abe 2f24 95bc d037 543d 69d8 6a3d
00000020: e431 e3bd f8f4 7dbb e78d 5f3d 61a0 e1bd
00000030: 20ae 693e fa72 acba 4d71 9f3c 26f7 103d
00000040: 2452 eb3d 1611 39be 2afa fb3d b425 aabd
00000050: bae3 113e 9675 723e bbcb 1d3e d308 6ebe
00000060: acb1 00be a6af c73c 4f8b d83d 5b80 3ebe
00000070: eef8 86bd cb01 733e 7871 3c3e 9bcd d0bd
00000080: a2e9 5bbc 3699 1b3e 7e04 973d 487e 713c
00000090: a1f5 d63b 5722 56be 631c 313e ecb9 e53d
000000a0: 4c4c 803d 595e 4bbe fc08 263b df82 60bc
000000b0: 1ed7 00bd 6b10 2ebd 1a19 423d c947 d93d
000000c0: 6075 7c3d a23b 27be ccdc 3b3e 5ae2 6c3d
000000d0: 8050 25be 07ce 653d 1ccf d13d 715f 05bc
000000e0: e8d7 d8bd 2450 1ebd b8dd e9bd 7417 5cbe
000000f0: 4648 c43d 484f bdbd 2e97 023e a717 663c
00000100: fe65 dabd 4c9b 473e 78c8 f2bd c4aa be3d
00000110: 1845 033e c143 2e3e 9281 16bd 3829 33bd
00000120: 4411 1f3c 0b0b 0abe 4152 753d 3b5a 03bd
00000130: 45df 863d c726 c1bc 3953 563e 769d ca3c
00000140: abb9 d63d 9214 1e3e 7b28 febd 3f6f 2bbe
00000150: 9d00 3abd 6507 3e3e 93c3 673e ff67 2a3e
00000160: 5a4a 4cbe b625 483e a85a 153e be01 3d3e
00000170: f538 913d 4c60 193e d922 093d 3c3e 18bc
00000180: 409c cf3d f2a7 3e3e ffdf 253e 4f0c f9bc
00000190: e8a7 5cbd 4a4a 363d 94e3 cebd 9281 e5bc
000001a0: 6a6f 443d 5766 19be fe9d adbd ec32 64bd
000001b0: b547 7fbd a0de 5a3e f662 21be 2c1a ad3d
000001c0: 970c b2bd e442 023e bea4 423e 5c80 443d
000001d0: 60d1 0a3e 7281 b8bb 7235 ccbd 8394 713d
000001e0: 89b3 cf3c 248d cd3d 6516 5a3e a17e 1e3d
000001f0: be1c 133c b07d a7bd 7cfa 29be 37c6 42be
00000200: 3dda 313e 1d7a 48bd c366 ecba 2a6c 4abe
00000210: 3896 c0bd ebaa b03d 4285 06be 1008 50bd
00000220: 2384 303d 518d f83c 6ca5 bc3d a3ce 05be
00000230: 60ce d2bd 9c41 4c3e 7908 9fbd 613a 153e
00000240: 40ae 44b7 219d 9a3d bf41 753c a46b a8bc
00000250: c970 28be 2687 1d3e f9db 423d bac9 90bd
00000260: f650 43be 90bb 1abe 259a a13d fc69 41be
00000270: 1aa5 513e 41cb b23c 76a8 673d 343f 313c
00000280: 445f 923d 3b07 173e d52d 89bc bc08 bf3d
00000290: de62 a93d c82d 09be 7018 293e b136 7bbe
000002a0: 3f22 043e a9b6 0e3e c92a 1a3e d024 193e
000002b0: 0689 643e a910 5e3e 8428 18be 851a 523e
000002c0: 91ac 773e 7a83 ed3d 57e3 803e 1019 4ebe
000002d0: 68b0 863e 03b9 273e db9f 2dbd d506 17be
000002e0: 4aaf 80bd 4ef5 97bd b805 85bd 4442 0d3e
000002f0: d2fa 313e 3da5 513d 2a4b 4a3d 79dc 13be
00000300: d13f 3abe 573a 90bd 8b46 b1bc db42 b73d
00000310: 32b0 fb3d f777 c23d 506a 693e 589f 5bbd
00000320: 4d09 67be b144 dbbc d60f 043d 8d13 383c
00000330: c571 ea3d ca33 673e c58b 11be 3edc c7bd
00000340: 6906 9d3d 24ac c0bd 5602 da3d 4fca 473e
00000350: e31c 823e 607b 2c3d 1923 ab3d 9e6a 0d3e
00000360: ef01 ba3d 33e4 613e 0f31 0ebe 040a 12be
00000370: b237 34be 48c4 95bd ced4 f43d ce2a ecbd
00000380: 0af0 833e 02ce 41bd 00eb 96bd 71c0 6a3e
00000390: f43c 0bbe 60ac 353e c3d3 36be 3618 b5bd
000003a0: 9f24 3c3e 66c4 24bb 521a 7a3e 9461 e73c
000003b0: 8aeb 37be 4307 0a3e 1802 af3d 5618 443e
000003c0: 1b3b 3d3e 4c36 a1bd 23e2 023e d661 12bc
000003d0: 5df0 423e 39ac aebd 333b 213e 021e 9fbd
000003e0: 0282 64bc cc9f c8bd 10ad 84bd 1633 36bd
000003f0: f1f4 263e 1abd 763e 2ff4 133e 01c6 acbd

sequential/dense_1/MatMul_bias f4 [64]
0.027163468 0.053612895 0.040822815 0.004439054 0.035442907 0.030252608 0.059616145 0.00846919
0.01251538 0.045346826 0.02665577 0.031388942 0.06901334 0.037120685 -0.0076897396 0.04434969
0.061677493 0.06226409 0.046493035 0.05047999 0.022875555 0.05451906 0.062233437 0.05273101
0.017625518 0.010099351 0.024131952 0.054461636 0.0408009 0.07609548 0.024214966 0.040341806
0.06627381 0.05808676 0.03467911 0.013716099 0.018620042 0.08070671 0.042050395 -0.0018182418
0.03954092 0.0045765694 0.030300746 0.02395782 0.007108181 0.038587347 0.057733413 0.024929523
0.076492734 0.05806046 0.011084404 0.056323808 0.07123465 0.049728986 0.059953917 0.04106999
0.03904115 0.030250072 0.040916093 0.032249954 0.007239984 0.070176356 0.040714346 0.05207919
00000000: ec85 de3c 3299 5b3d d335 273d 7c75 913b
00000010: 952c 113d 51d4 f73c 0f30 743d 5cc2 0a3c
00000020: 4f0d 4d3c 98bd 393d 345d da3c b191 003d
00000030: de56 8d3d dc0b 183d 36fa fbbb 05a8 353d
00000040: 8aa1 7c3d a108 7f3d 7b6f 3e3d 1bc4 4e3d
00000050: 8465 bb3c 614f 5f3d 7de8 7e3d 79fc 573d
00000060: 6463 903c c077 253c 5fb0 c53c 2a13 5f3d
00000070: d81e 273d f2d7 9b3d 775e c63c 733d 253d
00000080: 90ba 873d 62ec 6d3d af0b 0e3d 7db9 603c
00000090: 0f89 983c 8f49 a53d 093d 2c3d 1252 eeba
000000a0: a9f5 213d 0cf7 953b 4539 f83c 3143 c43c
000000b0: beeb e83b c40d 1e3d df79 6c3d 0039 cc3c
000000c0: 39a8 9c3d ced0 6d3d 5c9b 353c cbb3 663d
000000d0: 79e3 913d 9fb0 4b3d 3d92 753d 0139 283d
000000e0: 9de9 1f3d 00cf f73c a297 273d 8718 043d
000000f0: 633d ed3b 9fb8 8f3d 16c4 263d fd50 553d

sequential/dense_2/MatMul/ReadVariableOp/transpose f4 [41, 64]
0.07175771 -0.16465579 0.085895754 0.17861517 0.18772155 0.023712834 -0.18392201 -0.16842996
0.13986671 0.17790931 -0.14175405 -0.23712744 -0.029626224 0.27591312 0.1371982 -0.104154855
-0.19869924 0.17370133 -0.15474959 -0.32064244 0.25056922 0.12539548 0.11784903 -0.25478968
-0.18266873 -0.0583858 -0.29425567 0.25034088 0.022893691 -0.1541632 -0.023786666 0.14795715
-0.15935662 0.1113185 -0.12168909 -0.2974576 -0.19485743 -0.13121772 -0.23399799 -0.17711864
0.18524362 0.018345496 0.10788644 -0.12044662 -0.32613674 0.13215855 0.13013093 -0.17644064
0.07007634 -0.15130317 -0.14873202 -0.25133443 0.22656615 0.13216037 0.27306882 -0.07607599
-0.059482813 -0.028551515 -0.23591822 -0.18718253 0.22124417 0.019639608 0.112824164 0.054867577
-0.27013153 0.09369252 0.26875103 -0.26463443 0.112866394 -0.0957572 -0.0070625264 -0.22616401
-0.01188813 -0.32290083 -0.27820426 0.11634453 0.21594179 0.09587649 -0.09493945 -0.30102012
0.12294425 0.13935375 0.19471025 0.15801659 0.045919277 0.18423745 -0.022994097 -0.015852809
-0.27902353 -0.3124798 0.021022642 -0.07563796 -0.27631912 0.0884862 -0.2505672 0.08628063
-0.28789613 0.13738227 0.013610951 -0.096961156 -0.27879483 0.10980728 -0.33303288 -0.08925985
0.018515972 0.07840874 0.16190201 -0.22721927 -0.0849074 0.14143842 0.21726331 0.055964187
0.22972831 0.16074724 -0.27503714 0.027912721 -0.040074356 -0.24561591 -0.29651666 -0.13373071
-0.33099076 0.009204287 0.23724997 -0.31182012 -0.038833 0.1667355 -0.28814572 -0.018504977
-0.029091075 -0.056855895 -0.006812485 0.20925437 0.24283643 0.20303361 0.16118665 0.030721433
-0.096833654 -0.27253115 0.12650494 0.17251287 -0.19153869 -0.16587962 -0.12094422 -0.073665194
0.13899986 -0.040615324 -0.048729837 -0.16557603 -0.020642782 -0.30208865 -0.044513293 -0.16642973
-0.3037529 0.22636244 -0.09673063 -0.2513777 -0.0013567035 -0.23393027 -0.24785744 -0.067326546
0.10797842 -0.03792082 -0.0850287 -0.08947462 -0.24353689 0.12090819 -0.20128953 0.0260934
-0.05855862 0.043971267 0.23785238 0.07075272 -0.027785797 0.17452736 0.03864483 -0.11695257
0.1323298 -0.051786106 0.11120346 -0.19254282 0.11295278 -0.2243294 -0.30853793 0.10978803
-0.23083277 0.26214775 -0.22996071 0.26052144 0.2629764 0.14258969 -0.08627543 -0.11244948
0.19320594 -0.061132897 -0.21411186 -0.04290281 0.1067136 0.0276884 -0.03485179 -0.06797479
0.22641316 0.1446254 0.14818686 -0.094178 0.06753243 -0.054530475 -0.067918725 -0.18112807
-0.21019356 -0.05478909 -0.10360209 -0.10116288 0.2567304 0.1520209 0.14010133 0.12299251
-0.08909802 0.08687438 -0.28598744 0.24944347 -0.0062730005 -0.04702005 0.2606377 -0.25821015
-0.1966877 0.11743359 -0.2826244 -0.20051613 -0.16826908 0.15687662 0.15948866 -0.18963331
0.3012381 -0.14650936 -0.13845529 0.12582053 -0.0030521716 -0.13375102 0.009620291 -0.13198687
-0.31758195 0.09488448 0.2042401 -0.12720808 0.052862108 0.12548494 -0.05717149 -0.076473065
0.084190644 0.08257396 0.026402356 -0.197823 -0.2572817 -0.2630961 0.1278274 -0.3012584
00000000: b5f5 923d 879b 28be 1dea af3d e5e6 363e
00000010: 143a 403e 6b41 c23c 0d56 3cbe e778 2cbe
00000020: 3839 0f3e dc2d 363e f927 11be 89d1 72be
00000030: b2b2 f2bc 7c44 8d3e af7d 0c3e 244f d5bd
00000040: d077 4bbe c3de 313e ad76 1ebe 3f2b a4be
00000050: 9c4a 803e ac67 003e d55a f13d cb73 82be
00000060: 830d 3bbe f325 6fbd aea8 96be ae2c 803e
00000070: 8d8b bb3c f5dc 1dbe 41dc c2bc 1482 173e
00000080: 622e 23be f4fa e33d 2138 f9bd 5d4c 98be
00000090: b588 47be f05d 06be 2b9d 6fbe 975e 35be
000000a0: 81b0 3d3e 4b49 963c 91f3 dc3d b8ac f6bd
000000b0: 65fb a6be 9254 073e 0b41 053e dbac 34be
000000c0: 2f84 8f3d 38ef 1abe 354d 18be e8ae 80be
000000d0: f500 683e 0c55 073e adcf 8b3e bbcd 9bbd
000000e0: 40a4 73bd dee4 e9bc 8c94 71be c7ac 3fbe
000000f0: d58d 623e 3ee3 a03c 5b10 e73d d3bc 603d
00000100: ae4e 8abe dde1 bf3d bc99 893e 2a7e 87be
00000110: 7f26 e73d 5a1c c4bd c46c e7bb 8a97 67be
00000120: 6ec6 42bc 4253 a5be ca70 8ebe 0a46 ee3d
00000130: d81f 5d3e e55a c43d 9d6f c2bd 4f1f 9abe
00000140: 32ca fb3d c0b2 0e3e 2062 473e 1acf 213e
00000150: da15 3c3d bea8 3c3e 1e5e bcbc c0dd 81bc
00000160: 2cdc 8ebe 5afd 9fbe ad37 ac3c 13e8 9abd
00000170: b379 8dbe 4138 b53d 584a 80be e6b3 b03d
00000180: 1f67 93be f0ad 0c3e 7700 5f3c 9293 c6bd
00000190: 32be 8ebe a4e2 e03d 4983 aabe decd b6bd
000001a0: cfae 973c c394 a03d a4c9 253e 2bac 68be
000001b0: eee3 adbd 3cd5 103e 467a 5e3e b43a 653d
000001c0: e63d 6b3e ed9a 243e abd1 8cbe 38a9 e43c
000001d0: 0225 24bd bd82 7bbe 08d1 97be b4f0 08be
000001e0: 9f77 a9be 94cd 163c a8f1 723e e3a6 9fbe
000001f0: 5a0f 1fbd b6bc 2a3e d687 93be c097 97bc
00000200: 6850 eebc bae1 68bd 443b dfbb c746 563e
00000210: 1daa 783e 0be8 4f3e 1d0e 253e 84ab fb3c
00000220: b950 c6bd 3489 8bbe 838a 013e 37a7 303e
00000230: b822 44be 59dc 29be 9ab1 f7bd c7dd 96bd
00000240: fb55 0e3e 415c 26bd f098 47bd c38c 29be
00000250: 0d1b a9bc 5dab 9abe 9253 36bd 8e6c 2abe
00000260: 8085 9bbe 8ecb 673e b51a c6bd 94b4 80be
00000270: 6ad3 b1ba 6b8b 6fbe 57ce 7dbe 80e2 89bd
00000280: ca23 dd3d dd52 1bbd 8723 aebd 783e b7bd
00000290: bc61 79be b79e f73d d81e 4ebe d3c1 d53c
000002a0: 2adb 6fbd 371b 343d 938f 733e cde6 903d
000002b0: 0a9f e3bc 4db7 323e 0b4a 1e3d d484 efbd
000002c0: 7781 073e ab1d 54bd a4be e33d f229 45be
000002d0: ca53 e73d 9bb6 65be aff8 9dbe 8cd8 e03d
000002e0: 6d5f 6cbe 3b38 863e d27a 6bbe 1163 853e
000002f0: d8a4 863e 0803 123e 2cb1 b0bd ea4b e6bd
00000300: c7d7 453e 7d66 7abd 2440 5bbe dbba 2fbd
00000310: a98c da3d c9d2 e23c c0c0 0ebd 5e36 8bbd
00000320: dad8 673e ae18 143e 4cbe 173e 65e0 c0bd
00000330: 714e 8a3d 595b 5fbd f918 8bbd a379 39be
00000340: fb3c 57be 866a 60bd 552d d4bd 7c2e cfbd
00000350: 2b72 833e 5eab 1b3e b976 0f3e 7fe3 fb3d
00000360: 0679 b6bd 32eb b13d f26c 92be 1c6e 7f3e
00000370: be8d cdbb 1998 40bd 4e72 853e 1f34 84be
00000380: 8068 49be 0681 f03d 25b4 90be 1a54 4dbe
00000390: bb4e 2cbe 44a4 203e ff50 233e 3c2f 42be
000003a0: e13b 9a3e 8d06 16be 39c7 0dbe 19d7 003e
000003b0: f106 48bb 07f6 08be 6d9e 1d3c 9127 07be
000003c0: 1a9a a2be cb52 c23d 5124 513e d642 02be
000003d0: f085 583d 207f 003e a72c 6abd e99d 9cbd
000003e0: 256c ac3d 891c a93d c149 d83c 1d92 4abe
000003f0: 6dba 83be 88b4 86be 30e5 023e 8a3e 9abe

sequential/dense_2/MatMul_bias f4 [41]
-0.016364457 0.03415565 -0.012654789 0.02292935 -0.011547217 0.041760664 0.039640225 -0.03482541
0.025645941 -0.0017486623 0.015002721 -0.01076673 0.023414632 -0.0056951293 -0.020993676 0.03392391
-0.023413893 -0.027597588 0.021357218 -0.0024115464 -0.058182795 0.005121529 0.026340093 0.03417627
-0.004418582 -0.024040477 -0.07205374 -0.006281788 0.0047763684 0.049751464 -0.030053483 -0.011157255
-0.052870087 -0.027150705 0.011589581 -0.00521126 0.021753296 0.011953608 0.02157168 -0.031065213
-0.044061534
00000000: c10e 86bc cbe6 0b3d 0856 4fbc 55d6 bb3c
00000010: 8a30 3dbc 3b0d 2b3d ca5d 223d 17a5 0ebd
00000020: 7017 d23c 5f33 e5ba f9cd 753c f066 30bc
00000030: 0bd0 bf3c 359e babb eefa abbc ccf3 0a3d
00000040: 7ece bfbc 5614 e2bc 55f5 ae3c 090b 1ebb
00000050: 1551 6ebd 80d2 a73b 2ec7 d73c 6bfc 0b3d
00000060: c1c9 90bb 89f0 c4bc e990 93bd 75d7 cdbb
00000070: 1583 9c3b 31c8 4b3d b932 f6bc ebcc 36bc
00000080: 4e8e 58bd 286b debc 3ae2 3d3c 38c3 aabb
00000090: f833 b23c 11d9 433c 18b7 b03c 797c febc
000000a0: de79 34bd
